lightning_logs/version_1/checkpoints/epoch=0-step=10.ckpt (torch, 44713 bytes, 78 tensors)

model.input_block.conv1.0.weight f4 [2, 1, 3, 3, 3]
0.14612176 0.18479584 0.18644539 -0.06545898 0.14879388 -0.029122576 0.124505155 0.008646435
0.07171626 0.14497764 0.09884374 -0.191641 -0.031529818 -0.029697178 0.023974497 -0.00610012
-0.1574348 -0.19151367 0.10377754 0.17640656 0.0912315 0.18143459 0.1671922 0.1636631
0.14715706 0.10659565 -0.03899018 -0.045849197 0.0065019005 -0.16359545 0.033325292 -0.102295384
-0.13672687 -0.123196915 0.041316234 -0.049419336 -0.11163313 0.07966363 -0.13565195 -0.02435267
0.13551167 -0.05488697 0.0002021176 0.17339027 0.08908181 0.060611304 -0.07053833 -0.041091196
0.16036922 -0.17375995 -0.040080264 -0.04323697 0.18502554 0.17015351
00000000: f1a0 153e 1f3b 3d3e 8aeb 3e3e 5c0f 86bd
00000010: 6c5d 183e 7892 eebc 8ffc fe3d c7a9 0d3c
00000020: f9df 923d 0575 143e 966e ca3d 8a3d 44be
00000030: 6925 01bd 7f47 f3bc 2a66 c43c 84e3 c7bb
00000040: 9736 21be 291c 44be 5289 d43d eca3 343e
00000050: 95d7 ba3d fdc9 393e 6f34 2b3e 4d97 273e
00000060: 57b0 163e d24e da3d 2bb4 1fbd 5ecc 3bbd
00000070: e50d d53b 9185 27be 1a80 083d 3e80 d1bd
00000080: 2102 0cbe aa4e fcbd 363b 293d ee6b 4abd
00000090: e99f e4bd af26 a33d 58e8 0abe 407f c7bc
000000a0: 92c3 0a3e 29d1 60bd 88ef 5339 388d 313e
000000b0: 8670 b63d 8f43 783d 6676 90bd 3e4f 28bd
000000c0: d437 243e 21ee 31be 342b 24bd 4019 31bd
000000d0: 5677 3d3e b93c 2e3e

model.input_block.conv1.1.weight f4 [2]
1.0 1.0
00000000: 0000 803f 0000 803f

model.input_block.conv1.1.bias f4 [2]
0.0 0.0
00000000: 0000 0000 0000 0000

model.input_block.conv2.0.weight f4 [2, 2, 3, 3, 3]
-0.037070476 -0.02327228 -0.0746031 0.0556046 0.0023937183 0.037030663 0.07208952 0.0035558213
-0.0490408 -0.11076753 -0.0016519199 0.1164086 0.026271107 0.020783238 -0.066865005 0.00991087
0.12159039 -0.012607979 0.062771596 0.0010334922 0.002298542 0.067228466 0.0867567 0.09340816
-0.03276051 0.081193544 -0.09181894 0.07953633 0.05023832 0.047161866 -0.08145482 -0.09229682
0.10904211 0.088401854 -0.108934976 -0.04511386 -0.07405322 -0.08404625 0.07037247 0.07574417
0.08139071 0.004245741 -0.12870236 0.11099881 -0.13135931 -0.040866937 0.07561963 0.07060049
-0.003997831 -0.08189915 -0.012758133 0.049031977 -0.124664225 0.11979777 0.012090795 0.044555783
0.034886852 -0.12944356 0.008040744 -0.07369615 0.062322445 0.081534535 -0.122451045 0.0110543175
0.03727072 0.0022814437 0.0095527135 -0.014117759 0.00084409653 -0.08269805 0.018615821 -0.12780395
-0.10397545 0.09080128 -0.11787773 -0.13105534 -0.04347018 -0.022796623 0.05237595 0.020172095
-0.0424157 0.047289796 -0.11391033 -0.12051196 0.04132376 0.09065097 0.017378334 -0.037330665
0.008417265 -0.11687204 0.117027484 -0.08732831 -0.07822114 0.040387455 -0.1131045 -0.039047066
-0.10381307 0.02584738 0.07772075 -0.017489797 -0.07592849 0.012234217 0.03001642 0.054570783
0.0047152475 -0.1240216 0.004107997 0.013188365
00000000: 36d7 17bd 82a5 bebc 83c9 98bd a6c1 633d
00000010: eedf 1c3b 77ad 173d aca3 933d c808 693b
00000020: 02df 48bd 16da e2bd 3c85 d8ba a267 ee3d
00000030: 8136 d73c 9c41 aa3c 85f0 88bd 3461 223c
00000040: 6204 f93d b291 4ebc 658e 803d 3e76 873a
00000050: 23a3 163b 14af 893d 7fad b13d c74c bf3d
00000060: e22f 06bd cd48 a63d 920b bcbd f2e3 a23d
00000070: b2c6 4d3d cd2c 413d c9d1 a6bd 1d06 bdbd
00000080: 7851 df3d 080c b53d 4d19 dfbd 50c9 38bd
00000090: 37a9 97bd 7120 acbd 711f 903d c21f 9b3d
000000a0: 2cb0 a63d db1f 8b3b 8dca 03be 5853 e33d
000000b0: 0e83 06be 1764 27bd 77de 9a3d fd96 903d
000000c0: 3d00 83bb beba a7bd 7d07 51bc c1d5 483d
000000d0: f54f ffbd 8958 f53d 7818 463c 2080 363d
000000e0: 84e5 0e3d da8c 04be 53bd 033c 02ee 96bd
000000f0: d245 7f3d 94fb a63d 9dc7 fabd 2b1d 353c
00000100: 2fa9 183d 4684 153b fc82 1c3c 2c4e 67bc
00000110: 5c46 5d3a 985d a9bd 3580 983c 0adf 02be
00000120: 15f1 d4bd 06f6 b93d e169 f1bd 5f33 06be
00000130: ca0d 32bd fcbf babc 2a88 563d f33f a53c
00000140: 16bc 2dbd f2b2 413d d249 e9bd f9ce f6bd
00000150: 1a43 293d 37a7 b93d 025d 8e3c 0ae8 18bd
00000160: 91e8 093c 9c5a efbd 1bac ef3d 2fd9 b2bd
00000170: 6832 a0bd 516d 253d 55a3 e7bd d1ef 1fbd
00000180: f29b d4bd e2bd d33c 0e2c 9f3d c346 8fbc
00000190: 6580 9bbd 0672 483c ffe4 f53c 9d85 5f3d
000001a0: 5d82 9a3b 09ff fdbd 609c 863b 0314 583c

model.input_block.conv2.1.weight f4 [2]
1.0 1.0
00000000: 0000 803f 0000 803f

model.input_block.conv2.1.bias f4 [2]
0.0 0.0
00000000: 0000 0000 0000 0000

model.downsample.0.conv1.0.weight f4 [2, 2, 3, 3, 3]
0.0030494248 -0.0072509274 -0.06974301 -0.03889529 0.014269681 0.11522851 -0.075401746 -0.091280796
-0.0686449 0.0996219 -0.0017667253 0.1129153 -0.007211994 0.13356918 0.04100463 -0.025125874
-0.06594439 0.12338639 -0.06583031 0.06257102 -0.03630366 0.041743707 -0.091328084 0.096434765
0.10884319 0.0006020269 -0.010179496 -0.011908829 -0.0980343 -0.10664211 0.06405955 -0.091877714
0.05580741 -0.08431128 -0.052039385 -0.12393187 -0.028243547 0.015233709 0.05136032 -0.094483
0.11345546 -0.044004206 -0.011659995 0.11886083 -0.038115453 -0.01227328 0.080751106 0.047496874
-0.033554964 -0.043402083 0.03949336 -0.114795 0.021052968 -0.082105905 0.031931274 -0.1322227
-0.06569671 0.03313409 0.055665012 -0.08814369 0.04124993 -0.0086530885 -0.015573307 0.09747184
-0.005581747 -0.058487047 -0.12119185 0.0028175917 -0.116742395 0.06364976 -0.09453175 -0.016790079
0.10969376 -0.032821603 -0.12528001 0.08216289 0.12046889 -0.09312865 0.11043632 0.04902096
-0.019550374 0.08812502 0.09000926 -0.08777457 0.09309267 0.04538614 -0.04165163 -0.07561638
0.028897243 -0.016236167 -0.09469539 -0.13192493 0.014204175 -0.024084596 -0.102855496 -0.05813684
0.052156672 -0.12643705 -0.0015475291 -0.12850365 0.039814644 -0.014791456 -0.024508713 -0.00086309284
0.022797955 -0.07037666 0.02766407 -0.065939166
00000000: dcd8 473b 3099 edbb 6cd5 8ebd ab50 1fbd
00000010: 61cb 693c edfc eb3d 3b6c 9abd 6df1 babd
00000020: b395 8cbd 9106 cc3d 7791 e7ba 2340 e73d
00000030: 9752 ecbb 5cc6 083e 79f4 273d c7d4 cdbc
00000040: da0d 87bd 01b2 fc3d 0bd2 86bd 3c25 803d
00000050: 26b3 14bd 73fb 2a3d 380a bbbd 977f c53d
00000060: 2ee9 de3d 57d1 1d3a e7c7 26bc 401d 43bc
00000070: 35c6 c8bd 2e67 dabd a731 833d 622a bcbd
00000080: 5096 643d 64ab acbd 4027 55bd fecf fdbd
00000090: 035f e7bc ce96 793c 335f 523d 4e80 c1bd
000000a0: 565b e83d c13d 34bd 9009 3fbc 4f6d f33d
000000b0: f31e 1cbd de15 49bc d660 a53d 158c 423d
000000c0: ee70 09bd 62c6 31bd cac3 213d a419 ebbd
000000d0: 4677 ac3c 2427 a8bd 5eca 023d 6365 07be
000000e0: ff8b 86bd 9db7 073d ff00 643d ae84 b4bd
000000f0: b0f5 283d afc5 0dbc 2f27 7fbc 519f c73d
00000100: 16e7 b6bb 1d90 6fbd 6f33 f8bd 58a7 383b
00000110: a316 efbd ce5a 823d dd99 c1bd 598b 89bc
00000120: 1fa7 e03d f26f 06bd 6749 00be 0445 a83d
00000130: 65b8 f63d 3cba bebd 702c e23d 34ca 483d
00000140: 1b28 a0bc e47a b43d c656 b83d 27c3 b3bd
00000150: 5fa7 be3d d1e6 393d e69a 2abd c3dc 9abd
00000160: e9b9 ec3c b601 85bc a8ef c1bd 5417 07be
00000170: a1b8 683c 0f4d c5bc e7a5 d2bd e520 6ebd
00000180: 3ca2 553d b778 01be 76d6 caba 7696 03be
00000190: ae14 233d dd57 72bc 7fc6 c8bc 2e41 62ba
000001a0: c7c2 ba3c a321 90bd c29f e23c 1d0b 87bd

model.downsample.0.conv1.1.weight f4 [2]
1.0 1.0
00000000: 0000 803f 0000 803f

model.downsample.0.conv1.1.bias f4 [2]
0.0 0.0
00000000: 0000 0000 0000 0000

model.downsample.0.conv2.0.weight f4 [2, 2, 3, 3, 3]
-0.06245245 0.046068124 -0.08821788 0.021620862 -0.12886462 -0.050675217 -0.07702917 0.012479806
0.04044793 -0.09092269 -0.10972129 -0.006771022 -0.122978255 0.06536045 -0.11643488 0.08254262
0.026075304 -0.038724568 -0.03185188 -0.07392534 -0.035089113 -0.10123727 0.10939966 -0.05945325
0.050602898 -0.0032797172 -0.071716145 0.0071938247 -0.11414061 0.0043027783 -0.077245824 0.13288441
0.13229656 -0.07543878 0.07889636 -0.062002964 0.031717412 -0.045519467 -0.081398964 -0.006409605
0.0041699824 -0.052023795 -0.09301652 0.08896897 -0.067846894 -0.10952852 -0.053727772 0.07677169
0.13550624 0.07194863 -0.045457028 -0.0036266642 0.060348578 -0.02533383 0.024556147 0.012529819
-0.044576302 -0.027260652 0.07935871 -0.072068885 0.08188933 -0.0025946968 -0.09491325 0.108022794
-0.107233316 0.10907562 0.12067628 -0.0009989062 0.09145144 -0.070766084 -0.109112546 -0.07147916
0.02030442 -0.1268494 0.078880444 -0.038923793 -0.043701984 0.049048994 -0.12628199 0.022134412
0.099454775 0.03807934 0.08738116 0.043064967 -0.0453297 0.10301707 -0.07990002 0.002305777
0.046057288 -0.12692621 0.056341548 0.049667582 0.102268085 -0.1143525 0.0350975 -0.011250527
0.08117434 0.019045016 -0.051923104 -0.016208023 0.13546826 0.12037451 -0.10750668 -0.08482903
-0.10738261 0.07215146 -0.064640634 0.04277444
00000000: 24ce 7fbd eeb1 3c3d 93ab b4bd 3c1e b13c
00000010: 16f5 03be d190 4fbd 78c1 9dbd 1a78 4c3c
00000020: bbac 253d ad35 babd 8eb5 e0bd 73df ddbb
00000030: 06dc fbbd b3db 853d 6975 eebd 1b0c a93d
00000040: e09b d53c a79d 1ebd 1e77 02bd 2b66 97bd
00000050: 9ab9 0fbd 7c55 cfbd ee0c e03d 4085 73bd
00000060: fc44 4f3d 86f0 56bb eadf 92bd 2dba eb3b
00000070: 8dc2 e9bd 52fe 8c3b 0f33 9ebd da12 083e
00000080: c078 073e a67f 9abd 6a94 a13d d2f6 7dbd
00000090: 1eea 013d 9f72 3abd 80b4 a6bd aa07 d2bb
000000a0: 59a4 883b e716 55bd 727f bebd 5d35 b63d
000000b0: 50f3 8abd 7d50 e0bd a711 5cbd 7a3a 9d3d
000000c0: 26c2 0a3e ce59 933d 2631 3abd 54ad 6dbb
000000d0: 1230 773d e488 cfbc f929 c93c df49 4d3c
000000e0: a495 36bd bb51 dfbc d286 a23d da98 93bd
000000f0: 98b5 a73d ca0b 2abb e161 c2bd 0e3b dd3d
00000100: 249d dbbd 0a63 df3d 2025 f73d bbed 82ba
00000110: e44a bb3d cfed 90bd 6676 dfbd aa63 92bd
00000120: 7455 a63c cfe4 01be 128c a13d 8e6e 1fbd
00000130: da00 33bd 99e7 483d 1150 01be 3a53 b53c
00000140: f2ae cb3d 15f9 1b3d e5f4 b23d e464 303d
00000150: a3ab 39bd 9dfa d23d 9fa2 a3bd 851c 173b
00000160: 91a6 3c3d f2f8 01be 65c6 663d 3c70 4b3d
00000170: ee71 d13d a531 eabd 65c2 0f3d 2154 38bc
00000180: bb3e a63d 4b04 9c3c 52ad 54bd b0c6 84bc
00000190: 31b8 0a3e e986 f63d 762c dcbd d8ba adbd
000001a0: 6aeb dbbd 25c4 933d 4f62 84bd 4034 2f3d

model.downsample.0.conv2.1.weight f4 [2]
1.0 1.0
00000000: 0000 803f 0000 803f

model.downsample.0.conv2.1.bias f4 [2]
0.0 0.0
00000000: 0000 0000 0000 0000

model.downsample.1.conv1.0.weight f4 [2, 2, 3, 3, 3]
0.028046528 -0.05428188 -0.028657638 0.033090275 -0.09516308 0.044494703 0.13430242 0.041402113
0.103849046 -0.13018294 -0.0104355 -0.05532762 -0.11489086 0.083056934 -0.09062697 0.016838292
-0.116318226 0.1223682 -0.08549303 -0.062360357 -0.066962145 0.05692122 0.108380206 -0.13475737
-0.124674916 0.05657648 -0.05410715 0.07894097 -0.11006168 0.063073 -0.016748566 -0.11688416
-0.035184238 -0.056800265 -0.09881485 0.07934355 -0.063590266 -0.08384758 0.056980528 0.10397401
-7.5044496e-05 -0.08567016 0.043047655 -0.097037725 0.07657493 0.116259694 0.097287975 0.07640345
-0.10183227 0.06620751 -0.021709954 0.01826289 -0.0723799 0.101017505 0.10951786 0.030016227
-0.012500003 0.09223608 0.024898859 0.13457535 -0.08863099 0.061792802 0.048254002 -0.1290232
-0.1331104 0.024773559 0.035480995 0.061903097 -0.097867794 -0.04000237 0.047131516 0.051239982
0.1012702 -0.13566762 -0.04858077 0.10999309 0.035430867 -0.010357292 0.035941012 -0.06883132
0.06365099 0.088251114 0.037957836 0.10861241 0.019346297 -0.0012715225 0.062199626 -0.014408203
0.11030829 0.063147224 0.0022776152 0.11253358 0.021893933 0.027111797 0.078657456 0.030461384
0.0110760555 0.00066518044 -0.11530933 0.014063787 -0.037801843 0.13094926 -0.037714045 0.04605101
-0.022605492 -0.07941009 0.026383316 0.097368486
00000000: d5c1 e53c ad56 5ebd 6cc3 eabc ab89 073d
00000010: dce4 c2bd 1440 363d 9386 093e 4395 293d
00000020: cfae d43d ad4e 05be a9f9 2abc 379f 62bd
00000030: e64b ebbd c119 aa3d a29a b9bd 75f0 893c
00000040: 4038 eebd 2e9c fa3d f816 afbd 936d 7fbd
00000050: 7323 89bd 3a26 693d 71f6 dd3d d6fd 09be
00000060: 9055 ffbd bdbc 673d 759f 5dbd ceab a13d
00000070: 0568 e1bd 6b2c 813d 4a34 89bc f660 efbd
00000080: 591d 10bd 65a7 68bd 715f cabd df7e a23d
00000090: 9d3b 82bd 48b8 abbd 6a64 693d 53f0 d43d
000000a0: 3561 9db8 d673 afbd bd52 303d b7bb c6bd
000000b0: 51d3 9c3d 9019 ee3d eb3e c73d 6979 9c3d
000000c0: 708d d0bd ce97 873d 13d9 b1bc 0e9c 953c
000000d0: ea3b 94bd 44e2 ce3d e64a e03d 97e4 f53c
000000e0: d0cc 4cbc 45e6 bc3d b1f8 cb3c 1fce 093e
000000f0: 2a84 b5bd 731a 7d3d fda5 453d a81e 04be
00000100: 184e 08be ebf1 ca3c 8554 113d 1a8e 7d3d
00000110: e96e c8bd 86d9 23bd fa0c 413d 04e1 513d
00000120: c066 cf3d 74ec 0abe a1fc 46bd 0f44 e13d
00000130: f51f 113d a2b1 29bc e236 133d 6ff7 8cbd
00000140: 735b 823d 00bd b43d ad79 1b3d 2f70 de3d
00000150: 207c 9e3c 37a9 a6ba 09c5 7e3d 6210 6cbc
00000160: 50e9 e13d 5553 813d 0b44 153b 0178 e63d
00000170: e85a b33c 8f19 de3c 2917 a13d 278a f93c
00000180: 5878 353c 815f 2e3a 4c27 ecbd cc6b 663c
00000190: 1bd6 1abd 9017 063e 0b7a 1abd fc9f 3c3d
000001a0: 272f b9bc c2a1 a2bd d321 d83c 2169 c73d

model.downsample.1.conv1.1.weight f4 [2]
1.0 1.0
00000000: 0000 803f 0000 803f

model.downsample.1.conv1.1.bias f4 [2]
0.0 0.0
00000000: 0000 0000 0000 0000

model.downsample.1.conv2.0.weight f4 [2, 2, 3, 3, 3]
0.11016919 -0.11568812 0.03157928 -0.1330847 -0.052536696 -0.016336162 0.10570298 0.027807394
0.06975458 -0.0059967465 -0.053799056 0.047656275 -0.015546897 0.09512436 0.1093182 -0.09254263
0.005293249 -0.12719639 -0.0026666916 -0.112676285 0.057353627 -0.12997916 -0.08886302 0.024583433
0.12836215 -0.038663182 0.0058388384 -0.113939725 0.05302773 0.13076794 -0.024697427 -0.072244056
0.057932764 -0.11933386 0.093876 -0.1269504 -0.13586046 0.051369987 0.04520868 0.07563046
-0.03430846 0.12722494 0.12569878 0.060190815 0.06948462 -0.12861095 0.0827463 -0.02817848
0.08027271 -0.12516035 -0.024316266 -0.048725244 -0.012441327 -0.115588516 -0.10227904 -0.10653916
-0.06680057 -0.058702093 -0.12404987 -0.05874409 0.034715574 -0.060685046 -0.010273764 -0.11042122
0.055578515 -0.065139845 -0.018513069 0.110728286 -0.09345929 0.0037327744 0.109415576 -0.06137253
0.052723352 -0.025391938 0.025638744 -0.045757663 0.09400439 -0.13238907 -0.13010544 -0.0051235636
0.10442914 0.09272755 0.072862156 0.086963356 0.034528777 -0.07547155 -0.09353745 0.12655722
0.08467977 0.11172846 0.1130963 0.032849636 0.07357515 -0.034812666 -0.03969536 -0.05667141
-0.06916583 -0.13490996 -0.12122671 -0.10634161 -0.10449893 0.12024347 0.00027472517 0.13152015
0.06790001 0.072625555 0.11701579 -0.09553408
00000000: 62a0 e13d e5ed ecbd 4659 013d 5b47 08be
00000010: b830 57bd 6ad3 85bc ce7a d83d 55cc e33c
00000020: 7ddb 8e3d 5b80 c4bb 665c 5cbd 3a33 433d
00000030: 6ab8 7ebc 8fd0 c23d 38e2 df3d fe86 bdbd
00000040: fe72 ad3b c53f 02be a9c3 2ebb d3c2 e6bd
00000050: a3eb 6a3d 4219 05be d1fd b5bd 3263 c93c
00000060: 5e71 033e 495d 1ebd ba53 bf3b 3b59 e9bd
00000070: 9b33 593d 08e8 053e 4252 cabc b1f4 93bd
00000080: e84a 6d3d 5065 f4bd 0f42 c03d 49ff 01be
00000090: 011f 0bbe 5669 523d bd2c 393d 25e4 9a3d
000000a0: 0787 0cbd 4147 023e 2eb7 003e a58a 763d
000000b0: f44d 8e3d 97b2 03be e476 a93d 8ed6 e6bc
000000c0: 0566 a43d 092a 00be e832 c7bc 1f94 47bd
000000d0: b5d6 4bbc acb9 ecbd ac77 d1bd 3431 dabd
000000e0: bdce 88bd 9b71 70bd dc0d febd a59d 70bd
000000f0: eb31 0e3d e290 78bd 4a53 28bc 8524 e2bd
00000100: 4ca6 633d 0a68 85bd b8a8 97bc 83c5 e23d
00000110: 9667 bfbd 90a1 743b 4615 e03d c361 7bbd
00000120: 71f4 573d c102 d0bc 5808 d23c 636c 3bbd
00000130: 6085 c03d 0091 07be 5c3a 05be 91e3 a7bb
00000140: f2de d53d f1e7 bd3d c138 953d d819 b23d
00000150: 0c6e 0d3d d490 9abd 9090 bfbd 3798 013e
00000160: 966c ad3d e4d1 e43d 089f e73d 578d 063d
00000170: 91ae 963d ba97 0ebd 9a97 22bd 4820 68bd
00000180: d1a6 8dbd d625 0abe b645 f8bd a1c9 d9bd
00000190: 8903 d6bd 3542 f63d fd08 9039 38ad 063e
000001a0: 290f 8b3d b5bc 943d f9a5 ef3d 5fa7 c3bd

model.downsample.1.conv2.1.weight f4 [2]
1.0 1.0
00000000: 0000 803f 0000 803f

model.downsample.1.conv2.1.bias f4 [2]
0.0 0.0
00000000: 0000 0000 0000 0000

model.downsample.2.conv1.0.weight f4 [2, 2, 3, 3, 3]
0.051387507 0.010988163 -0.033916563 0.020650167 -0.12960663 -0.100871064 -0.096775055 -0.0034029258
-0.0961938 -0.07914894 -0.057771076 0.00063538 -0.060321584 0.07953119 -0.023025457 -0.033028957
0.07640106 -0.085852236 -0.104543395 -0.012843575 -0.034227736 0.019744474 0.099547245 0.05186433
0.042557627 -0.08067561 0.10539867 0.08105275 -0.12478498 0.037497833 0.0047880043 -0.03815719
0.09343845 0.012961025 0.030281039 0.019578682 -0.028358595 -0.13095048 0.028748143 -0.049938075
-0.027105128 -0.0052921134 -0.0003318602 0.106013805 -0.13227992 -0.032952193 -0.011751861 -0.03071888
-0.0739213 0.1200784 -0.07949428 0.06533135 0.09042074 -0.043087434 0.06011986 0.093112685
0.024386104 0.03996733 0.056381892 0.031206831 0.05028593 0.016460799 -0.008159767 0.0458713
-0.06024944 -0.0099282935 -0.041642316 0.12062997 0.026415259 0.0025058147 0.02759342 -0.08398481
-0.11159767 -0.07304962 0.10506446 -0.12716754 0.024088765 -0.04033799 -0.102010146 0.11818876
-0.10350192 0.11695718 0.051857486 -0.0902232 0.12420637 0.0065533672 0.11460969 0.073167674
0.058917508 -0.043588493 -0.05686389 -0.094811425 0.054089595 -0.10433285 -0.007572405 -0.09204068
0.124128416 -0.12698747 -0.0637717 -0.09116364 -0.102351144 0.01621151 0.0011190488 0.06635892
-0.107586004 0.06521237 0.041142847 -0.0566835
00000000: b57b 523d b207 343c 18ec 0abd 8a2a a93c
00000010: 9ab7 04be 7d95 cebd 0032 c6bd 9f03 5fbb
00000020: 4101 c5bd d718 a2bd 5da1 6cbd a18f 263a
00000030: c413 77bd 40e1 a23d e29f bcbc 5f49 07bd
00000040: 2978 9c3d 4cd3 afbd d91a d6bd dc6d 52bc
00000050: 6232 0cbd 2abf a13c 6ddf cb3d b16f 543d
00000060: e850 2e3d 4139 a5bd 42db d73d fcfe a53d
00000070: 458f ffbd 5497 193d b1e4 9c3b b74a 1cbd
00000080: a85c bf3d 7b5a 543c f10f f83c 7963 a03c
00000090: 4950 e8bc e217 06be 3a81 eb3c de8b 4cbd
000000a0: 930b debc 7769 adbb 86fd adb9 c41d d93d
000000b0: 6374 07be e1f8 06bd e18a 40bc 29a6 fbbc
000000c0: 0d64 97bd aaeb f53d e6cd a2bd 71cc 853d
000000d0: 822e b93d 737c 30bd 3e40 763d ddb1 be3d
000000e0: 5ec5 c73c c8b4 233d b3f0 663d 78a5 ff3c
000000f0: 9ff8 4d3d ccd8 863c 8bb0 05bc 8be3 3b3d
00000100: 1ec8 76bd 48aa 22bc 2291 2abd d90c f73d
00000110: d064 d83c 9838 243b 990b e23c 3a00 acbd
00000120: 528d e4bd 0a9b 95bd 092c d73d 3538 02be
00000130: cd55 c53c 7339 25bd b2ea d0bd f30c f23d
00000140: d1f8 d3bd 3f87 ef3d 8468 543d f1c6 b8bd
00000150: e95f fe3d a1bd d63b 7cb8 ea3d efd8 953d
00000160: 7c53 713d d989 32bd 1cea 68bd 7e2c c2bd
00000170: 0d8d 5d3d 76ac d5bd f021 f8bb d37f bcbd
00000180: 0a37 fe3d 0109 02be bd9a 82bd 01b4 babd
00000190: 7a9d d1bd 00ce 843c 0cad 923a 2fe7 873d
000001a0: 0d56 dcbd 108e 853d 6785 283d f52c 68bd

model.downsample.2.conv1.1.weight f4 [2]
1.0 1.0
00000000: 0000 803f 0000 803f

model.downsample.2.conv1.1.bias f4 [2]
0.0 0.0
00000000: 0000 0000 0000 0000

model.downsample.2.conv2.0.weight f4 [2, 2, 3, 3, 3]
0.049932625 -0.121616244 -0.10298521 -0.06923887 0.052147377 -0.10918821 -0.05453928 0.0059261955
0.08519254 -0.09453389 0.057039756 -0.048986815 -0.08409752 -0.02189218 -0.092598274 -0.099294014
-0.050235055 -0.13348468 -0.05080826 0.0019286079 0.112013906 -0.115136705 0.108322956 -0.08891161
-0.015658263 -0.02583505 -0.00052621996 0.020167358 -0.009297893 -0.106600255 -0.0027288068 -0.00681187
0.045587666 -0.11960013 -0.052651454 -0.0069488515 -0.041036412 -0.124506965 -0.03156319 -0.109813124
0.005783861 0.0044997176 -0.10336181 -0.06611907 -0.12986988 0.089853734 0.13416629 -0.0029544432
-0.07945634 -0.08762761 -0.03634821 0.11429328 0.13313125 0.044321906 -0.0344043 0.12025189
-0.08182329 -0.030473111 0.07711723 0.10954015 0.106984 -0.116336994 -0.03674481 -0.13328077
0.09565247 -0.01030431 0.07313652 0.10840741 -0.12670657 0.07566419 -0.10735672 -0.08092018
-0.04627251 -0.063930385 -0.05887867 -0.055044036 0.055421546 0.036114834 0.08017512 -0.024991391
0.10767291 0.08709256 -0.0041401335 0.12472941 0.043344494 0.027517274 -0.10206829 0.12662233
-0.111856066 0.067844026 0.09321546 -0.102510266 0.024166632 0.020883476 -0.08977205 0.084494576
-0.062145215 0.045632944 -0.055957843 -0.094331354 -0.12952122 -0.13065287 -0.114749335 -0.011094971
-0.1347359 0.012395336 -0.020428812 -0.08754698
00000000: 2786 4c3d f011 f9bd e9e9 d2bd 1ccd 8dbd
00000010: 7d98 553d 119e dfbd 9464 5fbd 8830 c23b
00000020: 6d79 ae3d fc9a c1bd 85a2 693d 66a6 48bd
00000030: 523b acbd 3b57 b3bc 2aa4 bdbd a95a cbbd
00000040: 46c3 4dbd 35b0 08be 521c 50bd 58c9 fc3a
00000050: 8c67 e53d cbcc ebbd 6dd8 dd3d 4a17 b6bd
00000060: c245 80bc 07a4 d3bc 06f2 09ba 0436 a53c
00000070: 3156 18bc 3c51 dabd c8d5 32bb 1b36 dfbb
00000080: 22ba 3a3d eaf0 f4bd 0da9 57bd 31b3 e3bb
00000090: cc15 28bd 82fd febd 6748 01bd b4e5 e0bd
000000a0: 8b86 bd3b 5e72 933b 5baf d3bd 6f69 87bd
000000b0: 9cfc 04be 3c05 b83d e362 093e 559f 41bb
000000c0: 01ba a2bd 1b76 b3bd dce1 14bd 9812 ea3d
000000d0: 8f53 083e e38a 353d 86eb 0cbd 9f46 f63d
000000e0: f892 a7bd bfa2 f9bc a3ef 9d3d 9656 e03d
000000f0: 6d1a db3d 1742 eebd ba81 16bd c17a 08be
00000100: 71e5 c33d 69d3 28bc 9ac8 953d b404 de3d
00000110: 5ebf 01be d4f5 9a3d d7dd dbbd 7bb9 a5bd
00000120: 3e88 3dbd efed 82bd c32a 71bd db75 61bd
00000130: b401 633d 26ed 133d da32 a43d bfba ccbc
00000140: 9d83 dc3d 965d b23d f5a9 87bb 2272 ff3d
00000150: ff89 313d e86b e13c 2e09 d1bd 49a9 013e
00000160: cb14 e5bd cff1 8a3d bfe7 be3d e7f0 d1bd
00000170: 1af9 c53c d313 ab3c 69da b7bd 7e0b ad3d
00000180: fb8b 7ebd 9ce9 3a3d 0d34 65bd cc30 c1bd
00000190: 36a1 04be dec9 05be b301 ebbd aec7 35bc
000001a0: 35f8 09be cf15 4b3c 535a a7bc d54b b3bd

model.downsample.2.conv2.1.weight f4 [2]
1.0 1.0
00000000: 0000 803f 0000 803f

model.downsample.2.conv2.1.bias f4 [2]
0.0 0.0
00000000: 0000 0000 0000 0000

model.downsample.3.conv1.0.weight f4 [2, 2, 3, 3, 3]
0.027585423 -0.13239427 0.07174382 0.07148266 0.13238887 -0.030646691 0.1274379 -0.06693455
-0.04681135 0.13407943 -0.08867976 -0.031180048 0.09241151 0.12392323 -0.10788101 0.10800743
-0.05485912 0.13215056 -0.061521612 0.09477864 -0.10980082 0.00976388 -0.052637454 -0.045144018
-0.13396479 -0.041787084 0.061895296 -0.07172175 -0.062101677 -0.10029996 -0.06529973 0.0654899
0.13140288 0.12279459 0.13594526 -0.0839192 -0.031340163 -0.009747414 -0.075705886 -0.10551261
-0.08353651 -0.096381955 0.10166375 -0.10930209 0.001659155 -0.04849886 0.10106085 -0.009334151
-0.077081084 -0.12630427 -0.09566162 0.13243409 0.11072399 0.0045029456 0.13431433 -0.0050703543
0.05870097 -0.024082309 -0.0038838692 0.0018949142 0.124495074 0.015132968 -0.080364 -0.034784146
0.008089897 0.018281706 -0.05100015 -0.033724245 0.0019529252 0.023379477 0.058547314 -0.05083191
0.03826794 -0.10267275 -0.048224982 0.073131904 0.13145164 -0.04633589 -0.115986094 -0.049485262
-0.098559834 -0.12218023 -0.09040385 0.037811268 -0.1149224 0.04597869 -0.022471335 -0.095527545
-0.088890776 0.07721557 -0.07994017 -0.054539327 -0.023207892 0.09910692 0.06297622 -0.06780311
0.093053326 -0.12518772 0.057293233 0.0766864 -0.13340642 -0.009224942 -0.064287096 -0.08164058
-0.096618205 0.09534892 0.019750396 0.11400461
00000000: d3fa e13c 5d92 07be 6dee 923d 8065 923d
00000010: f390 073e c50e fbbc 157f 023e fb14 89bd
00000020: 42bd 3fbd 1e4c 093e bc9d b5bd 4d6d ffbc
00000030: 3f42 bd3d 76cb fd3d b8f0 dcbd 0033 dd3d
00000040: f5b3 60bd 7a52 073e 16fe 7bbd 4e1b c23d
00000050: 41df e0bd aef8 1f3c 5f9a 57bd efe8 38bd
00000060: 112e 09be ef28 2bbd ec85 7d3d dae2 92bd
00000070: 545e 7ebd 116a cdbd ddbb 85bd 921f 863d
00000080: 7a8e 063e bb7b fb3d 3c35 0b3e d4dd abbd
00000090: 8b5e 00bd 9eb3 1fbc b00b 9bbd ff16 d8bd
000000a0: 3115 abbd e763 c5bd 1635 d03d c6d9 dfbd
000000b0: 0178 d93a bea6 46bd fef8 ce3d 44ee 18bc
000000c0: b0dc 9dbd e855 01be 3dea c3bd cd9c 073e
000000d0: 42c3 e23d 728d 933b b289 093e 3725 a6bb
000000e0: 6e70 703d 4348 c5bc 8388 7ebb c55e f83a
000000f0: 46f7 fe3d 45f0 773c e195 a4bd d279 0ebd
00000100: 7d8b 043c 84c3 953c 89e5 50bd 6f22 0abd
00000110: 4cf9 ff3a 5186 bf3c 4fcf 6f3d 1f35 50bd
00000120: d8be 1c3d 1746 d2bd 8f87 45bd 2ec6 953d
00000130: 429b 063e b4ca 3dbd 1e8a edbd 0fb1 4abd
00000140: bdd9 c9bd a139 fabd a725 b9bd fddf 1a3d
00000150: 6f5c ebbd 2754 3c3d ce15 b8bc f2a3 c3bd
00000160: 5e0c b6bd 3223 9e3d acb7 a3bd a164 5fbd
00000170: 7a1e bebc 92f8 ca3d adf9 803d 5bdc 8abd
00000180: be92 be3d 3631 00be 4fac 6a3d c20d 9d3d
00000190: b19b 08be 3624 17bc f4a8 83bd 2d33 a7bd
000001a0: c4df c5bd 4b46 c33d 95cb a13c 407b e93d

model.downsample.3.conv1.1.weight f4 [2]
1.0 1.0
00000000: 0000 803f 0000 803f

model.downsample.3.conv1.1.bias f4 [2]
0.0 0.0
00000000: 0000 0000 0000 0000

model.downsample.3.conv2.0.weight f4 [2, 2, 3, 3, 3]
0.01063132 -0.057946503 -0.003728508 -0.06765571 -0.07033128 0.097078055 -0.03260568 -0.082321495
0.014719461 -0.06606273 -0.060591538 -0.03543961 -0.12743677 0.02149423 -0.08832618 0.08538604
-0.11565389 0.090936154 -0.02059707 0.10349804 0.018052064 -0.02945117 0.0050796983 -0.078045696
-0.12848558 0.054565188 0.070608586 0.11341401 0.1168351 0.048473716 -0.13101853 0.10671987
0.052261762 0.04282601 0.018006656 0.06642877 0.12393325 -0.07644214 -0.11977405 -0.046824895
0.024959093 -0.0033849515 -0.10306619 0.09940994 -0.059792038 -0.12586805 0.021993553 -0.059307266
-0.020061815 0.07224269 0.12195508 0.033580903 -0.089593805 -0.02166471 -0.09881792 -0.06899638
0.049148727 0.1128163 -0.0007167188 0.07990117 -0.0034456877 -0.022228777 -0.13492757 0.10920855
-0.012725947 -0.010180697 -0.031775344 0.043836936 0.07441863 0.10464131 0.032203272 0.07121551
-0.058966354 -0.030853266 -0.018915238 -0.009827828 -0.09187481 -0.079761416 -0.039003737 0.07945311
0.106673986 0.13269223 -0.01500366 0.12673904 0.12875126 -0.011480154 0.00036550532 -0.04839361
-0.036258433 -0.0003779154 -0.07769258 0.08341374 0.034344148 -0.044573642 -0.1345866 0.07294384
0.10488062 0.016201695 -0.12407688 -0.005496239 0.048203114 -0.13332707 0.103878215 0.025072763
-0.0890777 -0.11006007 -0.09234548 0.13463578
00000000: fd2e 2e3c 5059 6dbd fc59 74bb 148f 8abd
00000010: d909 90bd dcd0 c63d 898d 05bd 2c98 a8bd
00000020: e529 713c e64b 87bd d52e 78bd 2029 11bd
00000030: c97e 02be ab14 b03c 5be4 b4bd e0de ae3d
00000040: f2db ecbd bc3c ba3d 30bb a8bc c8f6 d33d
00000050: ece1 933c 9443 f1bc 9973 a63b 6cd6 9fbd
00000060: b991 03be bf7f 5f3d 3c9b 903d 9b45 e83d
00000070: 3e47 ef3d 608c 463d b929 06be f28f da3d
00000080: 6e10 563d 546a 2f3d b282 933c cf0b 883d
00000090: b7d0 fd3d b28d 9cbd 194c f5bd 76cb 3fbd
000000a0: 0377 cc3c 10d6 5dbb 5e14 d3bd 7097 cb3d
000000b0: 7fe8 74bd 8ee3 00be d32b b43c 2dec 72bd
000000c0: ad58 a4bc faf3 933d 96c3 f93d 218c 093d
000000d0: f57c b7bd 317a b1bc 0d61 cabd f94d 8dbd
000000e0: 2d50 493d 3b0c e73d 2fe2 3bba 3aa3 a33d
000000f0: 0cd1 61bb 2019 b6bc 742a 0abe bba8 df3d
00000100: 7e80 50bc f0cc 26bc dd26 02bd 5c8e 333d
00000110: cb68 983d 2f4e d63d 94e7 033d 70d9 913d
00000120: b486 71bd fdbf fcbc 21f4 9abc e604 21bc
00000130: dc28 bcbd f459 a3bd 62c2 1fbd 50b8 a23d
00000140: e477 da3d 79e0 073e e9d1 75bc e1c7 013e
00000150: 5fd7 033e 4117 3cbc 4ba1 bf39 6138 46bd
00000160: b983 14bd f222 c6b9 4a1d 9fbd d3d4 aa3d
00000170: 73ac 0c3d da92 36bd 12d1 09be 9463 953d
00000180: a7cb d63d 6bb9 843c 051c febd cb19 b4bb
00000190: a170 453d e486 08be 1abe d43d 6565 cd3c
000001a0: 5f6e b6bd 2d67 e1bd a11f bdbd f6dd 093e

model.downsample.3.conv2.1.weight f4 [2]
1.0 1.0
00000000: 0000 803f 0000 803f

model.downsample.3.conv2.1.bias f4 [2]
0.0 0.0
00000000: 0000 0000 0000 0000

model.bottleneck.conv1.0.weight f4 [2, 2, 3, 3, 3]
0.11001293 -0.021018252 -0.1297098 0.09535043 -0.12658149 -0.13284367 -0.023964956 -0.08590575
0.08924569 0.04331367 0.001199982 -0.05843676 -0.13376243 0.07531257 0.08272003 -0.03676953
0.07863374 -0.011264997 -0.07467001 -0.03764041 0.04923023 0.062392462 -0.007657702 -0.1238097
-0.10114281 0.105807506 0.11879483 0.07835504 0.07336862 0.051527523 -0.10076166 -0.07209082
-0.065394856 -0.037380014 0.03286407 0.0025063176 -0.0543299 -0.06772766 -0.12983444 -0.13037036
0.027554357 -0.016664032 0.13033433 -0.075618476 -0.10753192 0.10486095 0.080642305 0.037846014
0.052779578 0.10948882 -0.10038891 0.12514538 -0.104470946 -0.015366521 -0.0997271 -0.08643788
0.008995396 0.09688002 -0.096009105 0.09118752 0.03708128 0.10101113 -0.05365148 0.032682627
-0.011663304 0.009632657 0.0004090785 0.13564542 0.08150394 0.035259478 0.01134421 0.028802844
0.12217465 0.13127163 0.088480726 0.09357439 0.047099426 0.013514904 0.019843154 0.08026256
-0.036573064 -0.024529347 -0.087097675 0.04812755 0.052578032 -0.13361841 0.06208568 0.07172369
-0.08109497 0.03361632 -0.07645336 -0.077652074 0.117048346 -0.07009481 0.0026548167 0.056350842
-0.06410296 -0.1329162 -0.07265714 0.02181592 0.097149454 0.10289715 -0.06669939 0.093492694
-0.07344264 -0.1162357 0.09185721 -0.12388497
00000000: 764e e13d 782e acbc a5d2 04be 1647 c33d
00000010: 949e 01be 2c08 08be 2852 c4bc 5bef afbd
00000020: 72c6 b63d ad69 313d b748 9d3a 625b 6fbd
00000030: 05f9 08be 7a3d 9a3d 1e69 a93d a69b 16bd
00000040: ba0a a13d d290 38bc 97ec 98bd d52c 1abd
00000050: a3a5 493d 3d8f 7f3d 76ed fabb f18f fdbd
00000060: f623 cfbd 9bb1 d83d b44a f33d 9b78 a03d
00000070: 4942 963d 860e 533d 215c cebd 5aa4 93bd
00000080: bded 85bd c91b 19bd 7a9c 063d 0841 243b
00000090: 0789 5ebd cdb4 8abd 52f3 04be cf7f 05be
000000a0: adb9 e13c 0283 88bc 5d76 053e dcdd 9abd
000000b0: b239 dcbd 56c1 d63d cb27 a53d 6c04 1b3d
000000c0: 662f 583d ad3b e03d b398 cdbd 1c26 003e
000000d0: ddf4 d5bd dcc3 7bbc b93d ccbd 5806 b1bd
000000e0: 6d61 133c 0869 c63d 6ca0 c4bd 86c0 ba3d
000000f0: 8ae2 173d ecde ce3d a7c1 5bbd 38de 053d
00000100: 7117 3fbc 4bd2 1d3c 9679 d639 a2e6 0a3e
00000110: 8aeb a63d 3e6c 103d 11dd 393c f1f3 eb3c
00000120: b436 fa3d 126c 063e 6235 b53d eea3 bf3d
00000130: 54eb 403d 9e6d 5d3c 1c8e a23c b260 a43d
00000140: a3cd 15bd c5f1 c8bc 4460 b2bd 6521 453d
00000150: 105c 573d 44d3 08be 8e4d 7e3d dfe3 923d
00000160: 1f15 a6bd 44b1 093d 9493 9cbd 0d08 9fbd
00000170: 0bb7 ef3d de8d 8fbd 6ffc 2d3b 24d0 663d
00000180: 6a48 83bd 2f1b 08be 44cd 94bd 4db7 b23c
00000190: 4bf6 c63d bebb d23d b199 88bd 1979 bf3d
000001a0: 1869 96bd fc0c eebd a21f bc3d 67b7 fdbd

model.bottleneck.conv1.1.weight f4 [2]
1.0 1.0
00000000: 0000 803f 0000 803f

model.bottleneck.conv1.1.bias f4 [2]
0.0 0.0
00000000: 0000 0000 0000 0000

model.bottleneck.conv2.0.weight f4 [2, 2, 3, 3, 3]
-0.03404652 -0.13387756 -0.017056158 0.011926219 0.12320063 0.086289756 0.12811483 -0.10030659
0.06499827 0.115606375 0.09828597 -0.0869327 0.113241516 -0.12599386 0.033562914 0.10815579
0.033120222 -0.061910916 -0.11951099 0.008959983 -0.030361762 -0.024568167 0.05618599 0.041340288
-0.07897723 0.060593292 0.0872713 -0.048476264 -0.02284727 0.1213859 -0.12362598 0.03819486
-0.05924969 0.08321463 0.095384315 0.0072293356 0.120521106 -0.07190238 -0.059454013 0.083542585
0.061348133 0.054618817 -0.09931252 -0.062206503 -0.056196537 -0.105727024 0.08449907 0.03716075
0.048587646 -0.08359706 0.08479208 0.027238281 0.121080615 0.075079635 0.13161756 0.12436913
0.11454696 0.07810234 0.11376702 -0.115576215 -0.01727537 -0.051081978 -0.02769494 -0.04107713
0.08339827 0.12090308 -0.11954016 -0.05375261 0.021505684 -0.015865017 0.014331001 0.05969527
-0.06333834 0.024990419 -0.017419992 -0.12155314 -0.034136422 0.13260688 -0.07609057 -0.037758056
-0.12716751 -0.003816952 0.08068809 -0.054342926 -0.054570444 -0.072119534 -0.03451108 -0.06252039
-0.0067205545 0.04908978 -0.13576257 -0.034526147 0.12729141 0.007221046 -0.025667766 -0.11754845
0.04339363 0.09078884 0.0503972 -0.00087365357 -0.062521316 0.018119175 0.06773115 -0.015393596
-0.10710412 0.037681602 -0.0015657955 -0.11036687
00000000: 5d74 0bbd 3317 09be 5bb9 8bbc 3066 433c
00000010: 9d50 fc3d afb8 b03d 8930 033e 8b6d cdbd
00000020: d01d 853d 09c3 ec3d 284a c93d c509 b2bd
00000030: 2beb e73d 8904 01be 4479 093d c880 dd3d
00000040: 12a9 073d 4d96 7dbd 2ec2 f4bd e4cc 123c
00000050: 3bb9 f8bc 2e43 c9bc 4823 663d 6f54 293d
00000060: d0be a1bd ac30 783d 4cbb b23d 0c8f 46bd
00000070: 332a bbbc 2c99 f83d 9e2f fdbd 3772 1c3d
00000080: ceaf 72bd 6f6c aa3d da58 c33d 10e4 ec3b
00000090: c5d3 f63d 8e41 93bd 0d86 73bd 6018 ab3d
000000a0: 2e48 7b3d fbb7 5f3d 5d64 cbbd 3fcc 7ebd
000000b0: 572e 66bd 6987 d8bd d90d ad3d df35 183d
000000c0: d703 473d ef34 abbd 78a7 ad3d d122 df3c
000000d0: 1df9 f73d 5ac3 993d c1c6 063e 3eb5 fe3d
000000e0: 9997 ea3d 1ff4 9f3d affe e83d 39b3 ecbd
000000f0: 1485 8dbc 563b 51bd 80e0 e2bc 7e40 28bd
00000100: b6cc aa3d 099c f73d 79d1 f4bd b22b 5cbd
00000110: b02c b03c 5af7 81bc 93cc 6a3c 0783 743d
00000120: 88b7 81bd b5b8 cc3c 5fb4 8ebc daf0 f8bd
00000130: a2d2 0bbd 19ca 073e 5fd5 9bbd 31a8 1abd
00000140: 3338 02be d425 7abb cc3f a53d b096 5ebd
00000150: 4285 5fbd 68b3 93bd 7d5b 0dbd b10a 80bd
00000160: 1938 dcbb 5d12 493d 5805 0bbe 4a6b 0dbd
00000170: ae58 023e 869e ec3b 3545 d2bc 3ebd f0bd
00000180: 85bd 313d 80ef b93d 4b6d 4e3d e605 65ba
00000190: 2d0b 80bd aa6e 943c a1b6 8a3d 6c35 7cbc
000001a0: 6859 dbbd 0658 1a3d 613b cdba 0708 e2bd

model.bottleneck.conv2.1.weight f4 [2]
1.0 1.0
00000000: 0000 803f 0000 803f

model.bottleneck.conv2.1.bias f4 [2]
0.0 0.0
00000000: 0000 0000 0000 0000

model.upsample.0.upsample_conv.0.weight f4 [2, 2, 2, 2, 2]
-0.017695248 -0.23365909 0.22101173 0.049886256 -0.18293333 0.09504613 -0.059417278 -0.14992166
-0.12409884 -0.10061267 0.07254526 -0.1776123 0.18110192 0.23911509 0.010327011 -0.10074371
-0.019907981 0.22762099 0.022805482 -0.06419483 -0.11724922 0.2250784 0.019925475 0.10414505
-0.14267537 -0.009751469 -0.040536314 0.018262535 0.016892582 0.17461199 0.027283877 0.09031746
00000000: a0f5 90bc 5444 6fbe e650 623e 8855 4c3d
00000010: e052 3bbe 8ca7 c23d 885f 73bd 1085 19be
00000020: 8827 febd 040e cebd 9c92 943d 00e0 35be
00000030: c872 393e 96da 743e a032 293c b852 cebd
00000040: 1016 a3bc 7a15 693e 90d2 ba3c 9478 83bd
00000050: 5c20 f0bd f47a 663e c03a a33c 004a d53d
00000060: 7e19 12be a0c4 1fbc 6809 26bd 509b 953c
00000070: 5062 8a3c 7ccd 323e 7082 df3c 5cf8 b83d

model.upsample.0.upsample_conv.0.bias f4 [2]
0.05797398 -0.1749484
00000000: 2076 6d3d ac25 33be

model.upsample.0.conv1.0.weight f4 [2, 4, 3, 3, 3]
0.017726688 0.031766623 -0.041556973 0.01027768 -0.00013911931 -0.04860739 -0.04784945 -0.023759382
0.092144355 -0.08731703 -0.01987214 0.0054422515 0.044932943 0.068946205 -0.014502523 0.092008516
-0.008782422 -0.06189168 -0.06832428 0.09080209 -0.059756882 -0.065369844 0.06277788 0.0021883762
-0.008365225 0.026205968 0.009485005 0.095336236 0.069184095 -0.010672325 0.06817739 -0.06411089
-0.043629296 -0.01412747 0.07676392 0.023512665 0.01393329 -0.01606866 -0.08819135 -0.09264513
0.069452345 -0.071444765 0.046340495 -0.092060514 0.045647927 0.06797197 0.06251793 -0.06639513
-0.067712106 0.019587638 -0.013932223 -0.044122536 -0.029670462 0.0350793 0.059705425 0.09599797
0.07127572 0.029554205 -0.076989956 0.01756582 0.018015778 0.01696455 0.010464277 0.05489694
-0.007554541 0.077169895 0.09553052 -0.04939387 0.014238795 0.06821436 0.048524834 0.0032859482
-0.04004507 0.016376814 0.05096222 0.03714161 -0.026288124 0.005439395 -0.034246396 -0.04282756
-0.08510096 -0.053373843 -0.05146786 0.022949215 0.092298426 -0.02199932 -0.02893263 0.07261797
-0.059036475 0.042569704 -0.019134859 -0.057547662 0.080434315 0.02244611 -0.08026948 -0.014249486
-0.07432511 0.022567462 -0.09066565 -0.04148045 0.053267863 0.09369683 0.024630988 -0.007911814
-0.048126955 0.08346409 0.073793225 0.051731013 -0.090029225 -0.00378912 0.008824922 -0.07272011
-0.045445465 -0.090886235 0.023554169 -0.07058877 0.07339568 -0.092695 0.033393566 0.018246848
0.07634222 0.053163603 -0.087082244 0.029427072 -0.05476826 -0.07630455 -0.091534704 0.021034041
-0.054022226 0.083312266 -0.019869158 0.02488788 0.06329902 -0.0051558227 -0.020563228 0.042921472
-0.05171827 0.056835286 0.009220393 -0.08810063 -0.05451621 0.09049965 0.007450247 -0.046817537
0.048419222 -0.011921657 -0.072804905 0.08041286 0.06926626 0.06185856 -0.045015525 -0.042516608
-0.020768167 -0.009808049 -0.05356511 -0.06537216 -0.009668895 -0.039892025 0.0141213555 0.050410148
-0.021479147 -0.009700601 0.08360912 0.05095074 0.05285787 -0.09145767 -0.066423655 0.035016723
-0.081036925 -0.03355393 -0.025916845 -0.06846216 0.02514663 0.042360064 -0.05695884 -0.09330339
0.076405294 -0.0614726 0.048659913 0.072098754 0.008192106 0.059621822 -0.07028432 -0.01829498
0.061864503 -0.02708354 0.07027279 -0.049522493 -0.077243745 -0.08329616 -0.06709264 -0.014011797
-0.059122413 0.051778767 -0.07949752 -0.00394774 0.08654121 0.088522255 -0.030573567 -0.076947205
-0.04653307 -0.051093195 -0.044188447 -0.078088716 0.06739615 -0.086842164 0.001220437 -0.042006746
-0.07416147 0.017348206 0.0036188113 0.088762395 0.062057443 -0.0492362 -0.080712326 -0.029108386
00000000: 8f37 913c b81d 023d a537 2abd b763 283c
00000010: 8ee0 11b9 8b18 47bd c9fd 43bd 09a3 c2bc
00000020: 2eb6 bc3d 45d3 b2bd e6ca a2bc ea54 b23b
00000030: 9b0b 383d ab33 8d3d fd9b 6dbc f66e bc3d
00000040: 26e4 0fbc 2182 7dbd 9aed 8bbd 72f6 b93d
00000050: a2c3 74bd a0e0 85bd b091 803d dc6a 0f3b
00000060: 4c0e 09bc e6ad d63c ff66 1b3c a53f c33d
00000070: 64b0 8d3d fada 2ebc 96a0 8b3d 924c 83bd
00000080: a2b4 32bd e776 67bc 6736 9d3d a29d c03c
00000090: 7448 643c 6ca2 83bc ab9d b4bd bbbc bdbd
000000a0: 083d 8e3d a251 92bd 88cf 3d3d 398a bcbd
000000b0: 52f9 3a3d e334 8b3d 6709 803d 2bfa 87bd
000000c0: a5ac 8abd 4176 a03c fb43 64bc d5b9 34bd
000000d0: 780f f3bc 50af 0f3d ad8d 743d 959a c43d
000000e0: 01f9 913d a91b f23c e9ac 9dbd 32e6 8f3c
000000f0: d395 933c 3df9 8a3c 5c72 2b3c 9ddb 603d
00000100: 158c f7bb 400b 9e3d 81a5 c33d 3a51 4abd
00000110: d649 693c f8b3 8b3d fac1 463d 1059 573b
00000120: 4d06 24bd ab28 863c c3bd 503d cd21 183d
00000130: 315a d7bc f43c b23b f345 0cbd f46b 2fbd
00000140: 6a49 aebd 889e 5abd f6cf 52bd feff bb3c
00000150: f506 bd3d eb37 b4bc 1f04 edbc bbb8 943d
00000160: 3bd0 71bd 925d 2e3d b5c0 9cbc 19b7 6bbd
00000170: bfba a43d e8e0 b73c 5364 a4bd ad76 69bc
00000180: c337 98bd 66df b83c eaae b9bd 68e7 29bd
00000190: 672f 5a3d 20e4 bf3d edc6 c93c 8ea0 01bc
000001a0: c520 45bd 39ef aa3d e720 973d e6e3 533d
000001b0: 3e61 b8bd e252 78bb 6896 103c 48ee 94bd
000001c0: 0625 3abd 9022 babd acf4 c03c d890 90bd
000001d0: 7950 963d e0d6 bdbd b1c7 083d 6a7a 953c
000001e0: 4f59 9c3d 14c2 593d 2d58 b2bd 0b11 f13c
000001f0: af54 60bd 8f45 9cbd 8c76 bbbd 954f ac3c
00000200: 6946 5dbd 9f9f aa3d a5c4 a2bc abe1 cb3c
00000210: eba2 813d 2df2 a8bb 3774 a8bc 6dce 2f3d
00000220: 89d6 53bd 1ecc 683d 2211 173c 1a6e b4bd
00000230: 644c 5fbd e157 b93d 3421 f43b bfc3 3fbd
00000240: 3c53 463d 0e53 43bc bd1a 95bd 7faf a43d
00000250: 78db 8d3d 675f 7d3d 3362 38bd e525 2ebd
00000260: 0122 aabc f0b1 20bc 1767 5bbd d7e1 85bd
00000270: 496a 1ebc d265 23bd 425d 673c df7a 4e3d
00000280: 09f5 afbc 45ef 1ebc 423b ab3d b9b1 503d
00000290: 7e81 583d 294e bbbd 2009 88bd b26d 0f3d
000002a0: b0f6 a5bd d96f 09bd 904f d4bc e435 8cbd
000002b0: 4e00 ce3c bf81 2d3d ac4d 69bd d915 bfbd
000002c0: 617a 9c3d b1ca 7bbd 9e4f 473d 83a8 933d
000002d0: 2f38 063c 0336 743d 3af1 8fbd 5bdf 95bc
000002e0: a265 7d3d 4dde ddbc 2eeb 8f3d 19d8 4abd
000002f0: f831 9ebd 2d97 aabd de67 89bd bc91 65bc
00000300: 582a 72bd f915 543d 99cf a2bd 0b5c 81bb
00000310: 853c b13d 284b b53d 6b75 fabc 7f96 9dbd
00000320: 7699 3ebd 1947 51bd f2fe 34bd faec 9fbd
00000330: fe06 8a3d 4eda b1bd 12f7 9f3a 440f 2cbd
00000340: f8e1 97bd d31d 8e3c 9429 6d3b 0fc9 b53d
00000350: f22f 7e3d e6ab 49bd 814c a5bd b674 eebc

model.upsample.0.conv1.1.weight f4 [2]
1.0 1.0
00000000: 0000 803f 0000 803f

model.upsample.0.conv1.1.bias f4 [2]
0.0 0.0
00000000: 0000 0000 0000 0000

model.upsample.0.conv2.0.weight f4 [2, 2, 3, 3, 3]
0.11684286 0.04421581 0.10429148 0.12126502 -0.06999768 -0.009699607 0.079668395 -0.11425266
0.12979731 -0.009560306 -0.09514366 -0.0415626 -0.047532026 -0.054816242 -0.06346328 0.045228504
0.093959086 -0.0011595397 0.094866455 -0.055428553 -0.049575556 -0.11693667 -0.061597437 -0.018696543
-0.06821689 -0.12671341 -0.037225023 -0.010297529 -0.026186913 0.09751478 0.10564373 -0.001314171
-0.016091822 -0.00283834 0.080008075 0.039733306 0.026785566 -0.096592344 0.017435938 -0.041180044
0.10309706 0.12637888 -0.051580798 0.025516752 -0.104580544 -0.12484193 0.090246685 0.053837776
-0.1014721 0.08853806 0.004250802 -0.041286707 0.123780094 0.023831772 -0.118184544 -0.020837307
-0.06435982 -0.12702987 0.07747319 0.084803626 0.10769176 -0.1349429 0.11311706 -0.1032665
-0.0104638245 0.019643344 -0.09762741 0.114638306 -0.08226506 0.067610666 -0.098970115 -0.12134715
-0.1216373 -0.12386497 0.006682448 0.09427036 0.11996854 0.09233296 -0.016481433 0.0036103444
-0.032957643 -0.026206559 0.07780123 0.05519213 0.010685973 -0.046456 -0.041626193 0.038471207
-0.09314917 -0.10636649 0.053972244 -0.0688634 -0.08789724 0.08439197 -0.10543126 0.09280779
0.056395877 -0.12451688 0.09146826 0.12453448 0.13005099 0.12250967 -0.014001104 -0.040049527
-0.09704449 0.005897498 -0.069003254 -0.12790596
00000000: 4f4b ef3d a31b 353d c596 d53d cb59 f83d
00000010: f25a 8fbd 1aeb 1ebc 2f29 a33d 4cfd e9bd
00000020: 96e9 043e d4a2 1cbc aeda c2bd 8b3d 2abd
00000030: f1b0 42bd ff86 60bd 09f9 81bd 8641 393d
00000040: 9f6d c03d b2fb 97ba 5849 c23d 0d09 63bd
00000050: bd0f 4bbd 7e7c efbd 984d 7cbd 7e29 99bc
00000060: 4cb5 8bbd 29c1 01be 4479 18bd f8b6 28bc
00000070: f085 d6bc d4b5 c73d bd5b d83d 4340 acba
00000080: ffd2 83bc 7103 3abb 46db a33d 64bf 223d
00000090: 676d db3c 35d2 c5bd d0d5 8e3c 68ac 28bd
000000a0: 8d24 d33d 7769 013e 6346 53bd 8208 d13c
000000b0: 532e d6bd 20ad ffbd 41d3 b83d 0085 5c3d
000000c0: 9bd0 cfbd 7153 b53d 504a 8b3b 401c 29bd
000000d0: 6b80 fd3d d93a c33c bd0a f2bd 00b3 aabc
000000e0: 15cf 83bd 1e14 02be 44aa 9e3d 86ad ad3d
000000f0: 7f8d dc3d 792e 0abe eba9 e73d 637d d3bd
00000100: 7670 2bbc 14eb a03c e1f0 c7bd 7dc7 ea3d
00000110: 957a a8bd 7677 8a3d d8b0 cabd db84 f8bd
00000120: fa1c f9bd ebac fdbd 70f8 da3b d210 c13d
00000130: 11b2 f53d 1019 bd3d 1204 87bc 879b 6c3b
00000140: 98fe 06bd 23af d6bc 4056 9f3d 2511 623d
00000150: 3814 2f3c a648 3ebd 3a80 2abd fc93 1d3d
00000160: fec4 bebd add6 d9bd 0012 5d3d 4108 8dbd
00000170: 7803 b4bd b2d5 ac3d 58ec d7bd 0312 be3d
00000180: 5dff 663d b502 ffbd b653 bb3d ef0b ff3d
00000190: 162c 053e 5ae6 fa3d e364 65bc f90a 24bd
000001a0: 43bf c6bd cd3f c13b 9451 8dbd c8f9 02be

model.upsample.0.conv2.1.weight f4 [2]
1.0 1.0
00000000: 0000 803f 0000 803f

model.upsample.0.conv2.1.bias f4 [2]
0.0 0.0
00000000: 0000 0000 0000 0000

model.upsample.1.upsample_conv.0.weight f4 [2, 2, 2, 2, 2]
0.20543042 0.21762729 -0.08254433 -0.19559884 0.059789658 0.07774484 0.12224054 -0.07320243
0.062161535 -0.010465711 0.035411388 0.121539444 -0.13267696 -0.09797126 -0.0068517923 0.11213136
0.23690787 -0.24142903 0.115529925 -0.1635839 0.16020724 0.028740406 0.038719624 0.11797863
-0.18197376 0.079303086 -0.15922153 -0.13081414 0.052951843 -0.22342378 -0.055859417 -0.08909646
00000000: 5a5c 523e b0d9 5e3e 000d a9bd 104b 48be
00000010: 00e6 743d b038 9f3d 4059 fa3d 28eb 95bd
00000020: 189d 7e3d 6078 2bbc 880b 113d ace9 f83d
00000030: 78dc 07be 28a5 c8bd 0085 e0bb 20a5 e53d
00000040: fa97 723e 2c39 77be f49a ec3d 8a82 27be
00000050: 5e0d 243e 0071 eb3c 7898 1e3d c89e f13d
00000060: 5457 3abe a869 a23d f80a 23be 24f4 05be
00000070: 08e4 583d 34c9 64be d8cc 64bd 3478 b6bd

model.upsample.1.upsample_conv.0.bias f4 [2]
0.24479392 0.15710145
00000000: 42ab 7a3e 34df 203e

model.upsample.1.conv1.0.weight f4 [2, 4, 3, 3, 3]
-0.07869197 0.084265314 -0.08388859 -0.061685394 0.017107202 0.061311226 -0.08560799 0.008985997
0.0848947 0.058455713 0.062212437 0.09329192 -0.06697926 0.013242328 -0.08284017 0.004606549
0.07272341 0.0854408 -0.09097775 -0.046751715 0.051479008 0.081217036 0.06856864 -0.067581244
-0.031075282 0.07652676 0.09088544 0.0042151497 0.01117139 0.015017097 -0.05776309 -0.0064621423
0.012242867 -0.08525024 0.06315017 0.00068760134 0.038946778 0.06369728 -0.0010954154 0.026739882
0.05312083 -0.07747615 0.008533148 -0.039084725 -0.007325868 0.02458561 -0.05325046 -0.0052123284
0.026162494 -0.0013580307 0.051022753 -0.08113404 0.01682668 0.07471667 -0.03441318 0.08052647
0.018213779 -0.037809893 0.036168255 0.058641464 0.041378062 -0.07996735 -0.0056535113 0.02972473
0.073566526 -0.011391919 0.06066624 -0.0763684 -0.043775037 0.053049423 0.07280892 -0.09371856
0.012782894 0.017811643 0.038520128 -0.015763784 -0.044426467 -0.07986139 0.02401095 -0.0010566897
0.004153838 0.004122373 -0.08834422 -0.014688409 -0.037489373 0.05465455 0.06271393 0.0088231675
-0.01136658 0.027215777 -0.09232798 -0.06252789 -0.055184092 -0.076599255 0.027713442 0.028751297
0.09619288 -0.07975838 -0.06538311 -0.016469406 -0.023382952 -0.089581445 0.07037606 -0.008182861
0.07157849 -0.09032044 0.012884217 -0.02585427 0.047220968 -0.018373374 -0.062318236 -0.062023867
-0.062010404 0.0005511203 -0.086433254 -0.034286775 0.00033896568 -0.047665227 -0.032709293 -0.06657451
0.03094386 0.06857192 -0.062233567 -0.042593908 -0.006003868 0.041424472 -0.0018657794 -0.056118857
0.08377969 -0.06321765 0.060828865 -0.033031452 0.04087279 -0.06514163 -0.0041960278 -0.04293309
0.05874471 -0.04330794 -0.028232455 -0.08352224 -0.087322935 0.023988767 0.01618978 0.05282872
-0.009833618 0.014779304 0.08918974 0.06379272 0.08289928 -0.0321697 -0.0546707 -0.029466096
-0.031558115 0.013362141 -0.050410066 0.036049727 0.08758042 -0.056925986 0.07653431 0.027760405
-0.0057885125 -0.00988183 0.03148321 -0.03980416 0.033063628 0.06979635 0.028653186 -0.07963535
0.0937632 0.014214132 -0.08863616 -0.018531373 -0.0069835875 0.08579978 -0.09097281 -0.014614295
0.0051982077 0.039711934 0.055915043 0.054653287 0.049946345 0.009368243 0.056140203 -0.02504541
0.015284702 -0.04682764 -0.062630534 -0.07654064 -0.09494129 -0.08125707 -0.017376412 0.051866863
-0.030353062 -0.036790747 -0.027782338 0.060458858 -0.072474495 0.095930494 -0.017275274 -0.050899565
-0.08611203 -0.0030331519 -0.07998107 -0.069872 -0.055475693 -0.018090535 -0.0818469 -0.040541474
0.06946887 -0.010670329 -0.091463454 -0.06867383 0.08838506 0.010885685 0.0071885725 0.02829846
00000000: 4129 a1bd 4b93 ac3d c8cd abbd d3a9 7cbd
00000010: 6724 8c3c 7b21 7b3d 3e53 afbd 013a 133c
00000020: 46dd ad3d 426f 6f3d 78d2 7e3d d60f bf3d
00000030: 6c2c 89bd 59f6 583c 1ba8 a9bd 89f2 963b
00000040: 03f0 943d 96fb ae3d 8b52 babd ba7e 3fbd
00000050: a7db 523d 1e55 a63d b76d 8c3d 0968 8abd
00000060: 9791 febc 10ba 9c3d 2522 ba3d 3d1f 8a3b
00000070: 3508 373c 450a 763c fd98 6cbd 61c0 d3bb
00000080: 4e96 483c ae97 aebd e054 813d 2540 343a
00000090: a886 1f3d b873 823d 0b94 8fba 990d db3c
000000a0: 3a95 593d d1ab 9ebd 9ece 0b3c 4e17 20bd
000000b0: d60d f0bb c367 c93c 281d 5abd 2ecc aabb
000000c0: ba52 d63c f3ff b1ba 3cfd 503d 9b29 a6bd
000000d0: 1bd8 893c 0e05 993d d6f4 0cbd 10eb a43d
000000e0: 1035 953c 8cde 1abd 2a25 143d 0832 703d
000000f0: 0b7c 293d ecc5 a3bd 1741 b9bb 4781 f33c
00000100: 0caa 963d 2ca5 3abc 2a7d 783d 0967 9cbd
00000110: 744d 33bd 5a4a 593d d81c 953d 84ef bfbd
00000120: 586f 513c b9e9 913c 48c7 1d3d 0d23 81bc
00000130: 87f8 35bd 5e8e a3bd 9db2 c43c 9f80 8aba
00000140: eb1c 883b f914 873b d0ed b4bd a7a7 70bc
00000150: 758e 19bd 73dd 5f3d 2970 803d 0c8f 103c
00000160: e43a 3abc 9ff3 de3c 7416 bdbd 9f0e 80bd
00000170: b708 62bd 12e0 9cbd 4d07 e33c d787 eb3c
00000180: c600 c53d 5d58 a3bd 94e7 85bd d9ea 86bc
00000190: 9b8d bfbc 7a76 b7bd 5321 903d 6811 06bc
000001a0: be97 923d ecf9 b8bd 5318 533c 56cc d3bc
000001b0: c66a 413d c283 96bc 6841 7fbd bd0c 7ebd
000001c0: 9ffe 7dbd 0f79 103a eb03 b1bd 4a70 0cbd
000001d0: 34b7 b139 9d3c 43bd 2efa 05bd 3758 88bd
000001e0: fa7d fd3c 6f6f 8c3d a0e8 7ebd f376 2ebd
000001f0: 18bc c4bb b5ac 293d 2b8d f4ba e3dc 65bd
00000200: b094 ab3d 4178 81bd b027 793d fd4b 07bd
00000210: 3a6a 273d fa68 85bd d57e 89bb 9cda 2fbd
00000220: 4b9e 703d ab63 31bd c047 e7bc b50d abbd
00000230: 5ed6 b2bd 1784 c43c 6ea0 843c ee62 583d
00000240: 2f1d 21bc e524 723c 1ca9 b63d c2a5 823d
00000250: 19c7 a93d 60c4 03bd 62ee 5fbd e262 f1bc
00000260: 1543 01bd e2ec 5a3c c97a 4ebd e1a8 133d
00000270: 5d5d b33d 392b 69bd 05be 9c3d ca69 e33c
00000280: 90ad bdbb 66e7 21bc 8af4 003d b009 23bd
00000290: ba6d 073d 64f1 8e3d 16ba ea3c dc17 a3bd
000002a0: ec06 c03d 64e2 683c e086 b5bd 1bcf 97bc
000002b0: 94d6 e4bb ccb7 af3d f44f babd cc70 6fbc
000002c0: ba55 aa3b fba8 223d 2c07 653d 20dc 5f3d
000002d0: 8a94 4c3d 427d 193c 45f3 653d 082c cdbc
000002e0: b06c 7a3c 57ce 3fbd 7044 80bd 57c1 9cbd
000002f0: 9470 c2bd 1b6a a6bd fa58 8ebc 5972 543d
00000300: fca6 f8bc e5b1 16bd c997 e3bc b5a3 773d
00000310: 826d 94bd 3577 c43d e084 8dbc 107c 50bd
00000320: 815b b0bd d8c7 46bb 1dcd a3bd 0d19 8fbd
00000330: 7b3a 63bd 9a32 94bc 599f a7bd d10e 26bd
00000340: b245 8e3d 9bd2 2ebc 3151 bbbd dda4 8cbd
00000350: 3a03 b53d df59 323c 1e8e eb3b 2cd2 e73c

model.upsample.1.conv1.1.weight f4 [2]
1.0 1.0
00000000: 0000 803f 0000 803f

model.upsample.1.conv1.1.bias f4 [2]
0.0 0.0
00000000: 0000 0000 0000 0000

model.upsample.1.conv2.0.weight f4 [2, 2, 3, 3, 3]
-0.0856388 -0.023148308 0.07014224 -0.10777002 -0.077005245 -0.080004655 -0.06045383 0.12687826
-0.121101655 0.073447816 0.007265106 0.0177057 -0.031346343 0.04531682 0.08421343 0.098268844
-0.005829673 0.00040993828 -0.13364908 0.11062584 -0.0133569315 -0.08781731 -0.024505517 -0.0060786046
-0.1326945 -0.13356912 -0.12043161 -0.04565895 0.021680236 -0.062834665 0.1297179 0.0052024527
0.029257474 -0.035118587 -0.12465516 0.12386479 -0.04316016 0.12401661 0.10877484 0.03251529
-0.068943344 -0.10328754 -0.011783365 -0.11370111 0.07893389 -0.108518675 0.0839933 0.0076538576
0.01731716 -0.06744061 -0.036237717 0.040381435 0.05750657 -0.049014814 0.11208491 -0.09903788
-0.077296436 0.105418704 -0.046726655 -0.06659305 -0.0526109 -0.09957355 0.053961862 -0.09565771
0.09882767 -0.117469154 0.1352673 -0.105513364 -0.08148898 -0.06903883 -0.018625863 0.09951021
0.13325071 0.08017267 0.12158542 -0.06964894 0.11895596 -0.018545352 0.10662307 0.034098543
0.115481704 0.06784856 -0.08749976 0.026554624 -0.03751842 0.016580569 0.105515376 0.063337766
0.10790354 0.04659154 0.048488382 0.038482223 -0.025821326 -0.13113739 -0.12872915 0.015357664
-0.09233635 -0.0016633729 -0.06666388 -0.0058259415 0.10924727 -0.13437748 0.12810819 -0.045663815
0.027391275 -0.11540214 -0.09410481 -0.1087612
00000000: 6563 afbd 85a1 bdbc bca6 8f3d 87b6 dcbd
00000010: edb4 9dbd 7bd9 a3bd 6f9e 77bd 60ec 013e
00000020: 2504 f8bd cf6b 963d 2010 ee3b 8b0b 913c
00000030: 0665 00bd 219e 393d 1778 ac3d 2d41 c93d
00000040: d706 bfbb fcec d639 4edb 08be cd8f e23d
00000050: 08d7 5abc 90d9 b3bd cbbf c8bc 082f c7bb
00000060: 11e1 07be 58c6 08be d9a4 f6bd e104 3bbd
00000070: c09a b13c 76af 80bd c5d4 043e 5679 aa3b
00000080: 5fad ef3c 82d8 0fbd 344b ffbd d3ac fd3d
00000090: b5c8 30bd 6cfc fd3d 58c5 de3d c12e 053d
000000a0: 2b32 8dbd 6b88 d3bd 040f 41bc 21dc e8bd
000000b0: 17a8 a13d 0a3f debd ae04 ac3d 36cd fa3b
000000c0: b7dc 8d3c 4d1e 8abd 006e 14bd 0167 253d
000000d0: 028c 6b3d c2c3 48bd c68c e53d 5fd4 cabd
000000e0: 984d 9ebd c3e5 d73d 7364 3fbd f061 88bd
000000f0: 877e 57bd 38ed cbbd 1d07 5d3d 31e8 c3bd
00000100: 2966 ca3d ab93 f0bd 8383 0a3e 6417 d8bd
00000110: b2e3 a6bd 3b64 8dbd 4495 98bc 02cc cb3d
00000120: e072 083e 9231 a43d c701 f93d 1aa4 8ebd
00000130: 2f9f f33d 6cec 97bc 325d da3d eaaa 0b3d
00000140: ac81 ec3d 30f4 8a3d 1333 b3bd 1589 d93c
00000150: eaac 19bd f9d3 873c 7218 d83d 3bb7 813d
00000160: 88fc dc3d c5d6 3e3d c19b 463d 899f 1d3d
00000170: 3f87 d3bc e148 06be 93d1 03be b69e 7b3c
00000180: d71a bdbd 8805 daba 1387 88bd 8ae7 bebb
00000190: 08bd df3d 409a 09be cb2e 033e fb09 3bbd
000001a0: ab63 e03c f557 ecbd 06ba c0bd 31be debd

model.upsample.1.conv2.1.weight f4 [2]
1.0 1.0
00000000: 0000 803f 0000 803f

model.upsample.1.conv2.1.bias f4 [2]
0.0 0.0
00000000: 0000 0000 0000 0000
